Android Path/app/src/main/ml/model.tflite (tflite, 10688 bytes, 6 tensors)

dense_5/bias f4 [32]
0	0xbe64c05b	-0.22339003
1	0x3ea546d1	0.3228059
2	0x3e2db6c9	0.16964258
3	0xbd9ae631	-0.07563437
4	0x3eee157f	0.46500775
5	0x3f309619	0.6897903
6	0xbdcaad04	-0.09896281
7	0x3ea7c1bf	0.32765004
8	0x3c8f60bc	0.017502181
9	0x3de9eb9f	0.11421894
10	0x3ea31657	0.3185298
11	0xbde31bf0	-0.11089313
12	0x3d95ecc4	0.0732055
13	0xbdd855b7	-0.10563224
14	0x3ddfdf87	0.10931306
15	0x3e2440cd	0.16040345
16	0x3dbbce10	0.09170163
17	0x3cb86ffd	0.022514338
18	0xbe321596	-0.17391047
19	0x3d2d8b3e	0.04236912
20	0xbeb87fff	-0.36035153
21	0xbd8d9506	-0.069131896
22	0xbd8f620d	-0.070011236
23	0xbe020aa5	-0.12699373
24	0xbda6e649	-0.08149392
25	0xbe9dd631	-0.30827478
26	0xbe96aea2	-0.2943011
27	0xbe871da4	-0.26389802
28	0xbeb9be9d	-0.3627824
29	0xbf1388df	-0.57630724
30	0xbeef2806	-0.46710223
31	0xbf2b016d	-0.6679905

dense_4/bias f4 [64]
0	0x3d871949	0.0659662
1	0xbcc64563	-0.024203008
2	0x3eaecdf3	0.34141502
3	0x00000000	0.0
4	0x3eb83f1f	0.35985658
5	0xbc3107bf	-0.0108050695
6	0x3edcc129	0.4311612
7	0x3ea28d55	0.31748453
8	0x3bb0d5cd	0.005396581
9	0xbf46ae3d	-0.77609617
10	0x3c0bc599	0.008530998
11	0x3e0c6d68	0.1371361
12	0xbc170683	-0.009217861
13	0x3f3bc06a	0.73340476
14	0xbe894123	-0.26807508
15	0x3a9179d9	0.0011098936
16	0xbf338e12	-0.7013866
17	0xbcb37d39	-0.021910297
18	0xbd728d9e	-0.059217088
19	0xbeb84d9e	-0.35996717
20	0x3ed94104	0.42432415
21	0x3ea1365e	0.3148679
22	0x3e5a7af2	0.21335962
23	0x3e86b80a	0.26312286
24	0x3ede2197	0.43385002
25	0x3e4ea361	0.20179512
26	0xbe56e29c	-0.20984882
27	0x3d53bad0	0.05169183
28	0x3e30ae3f	0.1725397
29	0xbcace2fc	-0.021104328
30	0x3e682c1b	0.22673075
31	0xbe035b48	-0.1282779
32	0x00000000	0.0
33	0x3e244f39	0.16045846
34	0xbb826f63	-0.0039805635
35	0xbdc13ed6	-0.09435813
36	0xbcea0c62	-0.028570358
37	0x3c77bbab	0.015120427
38	0xbd0762b5	-0.03305312
39	0xbccd8ac2	-0.025090579
40	0xbcb133c1	-0.021631123
41	0x3d244e40	0.040113688
42	0xbc811429	-0.015756683
43	0xbde36c03	-0.11104586
44	0xbea32618	-0.31865
45	0xbd51b861	-0.051201228
46	0xbc249e8b	-0.010047565
47	0x3eb6c321	0.35695747
48	0xbceb3737	-0.028712852
49	0xbd0d7cda	-0.034542896
50	0x3e2484ae	0.16066238
51	0x3dbc3f71	0.09191788
52	0x3f3f6c4d	0.7477463
53	0xbe181ca7	-0.1485468
54	0x3eddd1b6	0.4332406
55	0x3de8ccb3	0.11367168
56	0x3ef72ddf	0.48277184
57	0xbe344a38	-0.17606437
58	0x3ee66d76	0.45005387
59	0x3e78dbf4	0.24302655
60	0xbdc46c75	-0.09590999
61	0xbd9a1fdb	-0.07525607
62	0xbea2c776	-0.31792802
63	0x3dd02af6	0.10164444

dense_3/bias f4 [64]
0	0x3ea8e794	0.3298918
1	0x3e830f96	0.2559783
2	0xbe6bcc02	-0.23027042
3	0x3d5c5c31	0.053798858
4	0xbccb4ff0	-0.02481839
5	0x3dd77876	0.10521023
6	0x3e9ed9fb	0.3102568
7	0x3ea23d40	0.31687355
8	0x3ea5d0db	0.32385907
9	0x3e7dc2ff	0.24781416
10	0xbe4456dd	-0.1917376
11	0x3f1d991b	0.61561745
12	0x3d857b11	0.06517614
13	0x39d048a6	0.0003972698
14	0x3d550a87	0.052011993
15	0x3e8e887f	0.27838513
16	0xbef84564	-0.4849044
17	0xbe12b67b	-0.14327423
18	0xbc1b938b	-0.009495626
19	0x3c9779c8	0.018490687
20	0x3dee427c	0.11633775
21	0x3e9f2dfb	0.31089768
22	0xbd5f4f59	-0.05451903
23	0x3e4d4dbf	0.20049189
24	0x3ec2a53d	0.38016692
25	0xbe185b1f	-0.1487851
26	0x3d8ab0b4	0.06771985
27	0x3de8c07c	0.113648385
28	0xbe85376f	-0.26018855
29	0x3e74a949	0.23892702
30	0xbf4fef87	-0.81224865
31	0x3e8cf523	0.27530774
32	0xbe92d3d8	-0.2867725
33	0xbdd08cc8	-0.10183102
34	0x3e9e7084	0.30945218
35	0xbd0ef1bd	-0.03489851
36	0xbe40e0de	-0.1883578
37	0x3eacc474	0.33743632
38	0x3e9e4a25	0.30915943
39	0xbe331b40	-0.17490864
40	0x3ee78efa	0.4522627
41	0xbd33dea9	-0.043913517
42	0x3ee19134	0.44056094
43	0xbe998cb8	-0.29990172
44	0x3e8b7c33	0.27243194
45	0xbea57624	-0.32316697
46	0x3e35c7b1	0.17751957
47	0x3e90818c	0.28223836
48	0x3e104c4a	0.14091602
49	0x3d52804b	0.05139188
50	0x3cb18871	0.021671506
51	0x3d058ac4	0.03260304
52	0x3d2c09c4	0.0420015
53	0xbdf8324c	-0.12118968
54	0xba35a10b	-0.00069285993
55	0xbdc6ab0b	-0.097005926
56	0x3e89adc3	0.26890382
57	0x3efda262	0.4953795
58	0xbeafddfa	-0.34349042
59	0x00000000	0.0
60	0xbe907d48	-0.28220582
61	0x00000000	0.0
62	0xbcbb2f3d	-0.022849673
63	0x3e51578d	0.20443554

sequential_1/dense_3/MatMul f4 [64, 7]
0	0xbebbb9fb	-0.3666533
1	0x3e5ef6cd	0.21773835
2	0xbe4ca02f	-0.1998298
3	0xbebc6e61	-0.36802962
4	0x3e99c3c3	0.30032167
5	0x3eae49ae	0.34040588
6	0x3e238705	0.15969475
7	0xbe32dad1	-0.17466284
8	0xbeba9858	-0.36444354
9	0xbe82e631	-0.25566247
10	0x3e352d93	0.17693166
11	0xbe8f5cc3	-0.2800046
12	0x3e3f41fd	0.18677516
13	0x3e818452	0.25296265
14	0xbe37b228	-0.17939055
15	0x3d904086	0.07043557
16	0xbee07658	-0.4384029
17	0x3e4b30a5	0.19842775
18	0x3ebb2aef	0.36556193
19	0x3e82184f	0.2540917
20	0x3ebe8682	0.37211996
21	0xbea90298	-0.3300979
22	0xbe97984b	-0.29608378
23	0x3dd0282a	0.10163911
24	0x3d33a4ee	0.04385846
25	0xbdba7399	-0.0910408
26	0x3eba46fb	0.3638228
27	0x3e66ad68	0.22527087
28	0x3ce4dd34	0.02793751
29	0xbe219080	-0.15777779
30	0x3e3a390e	0.18185827
31	0xbe6fd7ab	-0.23422115
32	0xbe95eda3	-0.29282865
33	0x3e8ea4f3	0.2786022
34	0x3e8b5b53	0.27218112
35	0x3e52c3a3	0.20582442
36	0x3ec4ed71	0.38462403
37	0xbd2f0d88	-0.042737514
38	0xbe40b9ce	-0.18820879
39	0xbe11d532	-0.14241484
40	0xbf0703b8	-0.5274005
41	0x3ede487a	0.4341467
42	0x3efef6cb	0.49797663
43	0xbe7b6870	-0.24551558
44	0xbe0ef5b8	-0.13960922
45	0x3e1c3bca	0.15257183
46	0x3ddb67ed	0.10713182
47	0xbead494c	-0.33844984
48	0xbeffd75e	-0.49969
49	0xbf08cecb	-0.5344054
50	0xbebe80b0	-0.37207556
51	0x3e1920ea	0.14953962
52	0xbd6b03d8	-0.057376713
53	0xbe33ea2e	-0.17569801
54	0x3eb2dea4	0.34935486
55	0xbe920118	-0.2851646
56	0xbeb6bdd4	-0.35691702
57	0x3dbf21e1	0.09332634
58	0xbeced968	-0.40400243
59	0x3eb346c4	0.35014927
60	0xbee47d73	-0.4462696
61	0x3e9fafff	0.31188962
62	0x3ea4f827	0.32220575
63	0xbdb4076f	-0.0879048
64	0x3da9aae3	0.08284547
65	0x3ec4954c	0.38395154
66	0xbb4e1805	-0.0031447422
67	0x3eafcccb	0.34335932
68	0x3e5ca3ee	0.21546909
69	0xbd0f2763	-0.03494967
70	0xbec48a80	-0.38386917
71	0xbe008853	-0.12552004
72	0xbebd7d2c	-0.3700956
73	0xbe258778	-0.16164958
74	0x3f038630	0.5137663
75	0x3dbd3277	0.09238141
76	0xbe384274	-0.179941
77	0x3e46a5da	0.19399205
78	0xbedecf7a	-0.43517667
79	0x3e9b6e37	0.30357525
80	0xbe11a56e	-0.14223263
81	0xbddbc96f	-0.1073178
82	0xbe8ec1bf	-0.27882192
83	0x3ea12472	0.31473118
84	0xbe0400aa	-0.12890878
85	0x3da34856	0.07972781
86	0xbe9c5f0b	-0.30541262
87	0x3ea392c4	0.3194791
88	0x3ccc3534	0.024927713
89	0x3eb4759c	0.3524598
90	0x3ddc8b33	0.10768738
91	0xbea9ca0f	-0.3316197
92	0xbe526058	-0.20544565
93	0xbe648420	-0.22316027
94	0xbe41c951	-0.18924452
95	0xbf369341	-0.7131844
96	0x3ebfa57e	0.37430948
97	0xbd752416	-0.059848867
98	0x3e14401e	0.14477584
99	0x3ec552f0	0.3853984
100	0xbe99d52e	-0.30045456
101	0x3ec1a4eb	0.37821135
102	0xbeb5945d	-0.35464755
103	0xbdadbde2	-0.08483483
104	0xbe4f9c8d	-0.20274563
105	0x3c28f061	0.010311217
106	0xbd68490a	-0.05671028
107	0xbe073c0b	-0.13206498
108	0x3ee9a071	0.4563022
109	0x3ac12d81	0.0014738293
110	0x3dd18d54	0.10232034
111	0xbf2d0b85	-0.675957
112	0xbe37cc8c	-0.17949122
113	0xbe0bfa17	-0.1366962
114	0xba8b91ad	-0.0010648273
115	0x3e950259	0.29103354
116	0xbe96ac55	-0.29428354
117	0x3ec1f83c	0.378847
118	0x3e9c1d3f	0.30491063
119	0xbde70526	-0.11280279
120	0xbe887f4b	-0.26659617
121	0xbb6a7a93	-0.0035778626
122	0xbf3018de	-0.68787944
123	0x3e9af2b5	0.30263296
124	0x3d6a35e1	0.05718029
125	0x3c9cb51a	0.019129325
126	0x3e3acb41	0.18241598
127	0x3ebc0768	0.367244
128	0xbe6ae927	-0.22940503
129	0xbf2d758a	-0.67757475
130	0xbea561c4	-0.32301152
131	0x3e2177a6	0.15768299
132	0x3da09145	0.07840208
133	0x3ecbe666	0.39824218
134	0xbe282ccf	-0.16423343
135	0x3d4ed1d3	0.050493073
136	0x3e9569eb	0.29182371
137	0xbd86b34a	-0.065771654
138	0x3ea01231	0.3126388
139	0xbe223792	-0.15841511
140	0xbe9b69ac	-0.3035406
141	0xbdf127e7	-0.11775189
142	0xbee6b0e2	-0.45056826
143	0xbdfcef58	-0.12350339
144	0x3e2432ee	0.16035053
145	0xbd2b4844	-0.041816965
146	0x3eea28af	0.45734164
147	0x3e29f01c	0.165955
148	0x3e9aad2c	0.30210245
149	0x3ee43dda	0.4457844
150	0xbecd458c	-0.40092123
151	0xbe496c8d	-0.19670315
152	0xbe99d6c3	-0.30046663
153	0xbe3963c7	-0.18104468
154	0xbd9a61bf	-0.07538175
155	0x3e23f7f5	0.16012557
156	0x3e481895	0.19540627
157	0x3e75e935	0.24014743
158	0x3ed3c8e6	0.4136421
159	0xbee4b6e6	-0.4467079
160	0x3eab66da	0.33476907
161	0x3e4156aa	0.18880716
162	0x3e082b96	0.13297877
163	0xbe924c55	-0.28573862
164	0x3ed386c4	0.41313756
165	0xbddde283	-0.10834219
166	0xbe4bbd2b	-0.1989638
167	0xbebe8bbe	-0.3721599
168	0xbe55cacf	-0.20878147
169	0xbe16bc3a	-0.1472024
170	0x3ec5d9ea	0.38642818
171	0x3c29721e	0.010342149
172	0x3e00d2fd	0.12580486
173	0xbf0ed1c1	-0.5578881
174	0xbe5a2bec	-0.21305817
175	0x3e855628	0.26042295
176	0xbc7de409	-0.015496262
177	0x3e416885	0.18887527
178	0xbcdab40b	-0.02669718
179	0x3e83ffa4	0.25780976
180	0xbe901b6a	-0.28145915
181	0x3e7c106c	0.2461564
182	0x3dd597c1	0.104293354
183	0x3e1698ea	0.1470677
184	0x3ea527e6	0.32257003
185	0xbe34607c	-0.17614931
186	0x3e8a21f5	0.26979032
187	0x3e35d272	0.1775606
188	0x3d5121ed	0.051057745
189	0xbeb36cb0	-0.3504386
190	0x3e8622ce	0.2619843
191	0x3e58d1f0	0.21173835
192	0x3e8791fa	0.2647856
193	0xbeace1e1	-0.33766082
194	0xbe677e39	-0.22606744
195	0xbd950d6f	-0.07277953
196	0x3ed6b6fe	0.41936487
197	0x3e1419f8	0.14463031
198	0x3e354b23	0.17704444
199	0xbdf23da6	-0.11828165
200	0xbe601770	-0.2188394
201	0x3d6e0d26	0.058118008
202	0x3e1b4f90	0.1516707
203	0x3ec19e5d	0.37816134
204	0xbeadc239	-0.33937243
205	0xbd1a9f3c	-0.037749514
206	0xbe748298	-0.23877943
207	0x3ec59df4	0.3859707
208	0xbed4f7d3	-0.41595325
209	0xbf10bafe	-0.5653533
210	0x3d268e47	0.04066303
211	0xbcdd58b9	-0.027019845
212	0x3e87608a	0.2644084
213	0xbe4639d6	-0.19358
214	0xbc671ea8	-0.01410643
215	0x3e195065	0.14972074
216	0x3e79a0a0	0.2437768
217	0x3d2882b4	0.041140273
218	0x3d4fc0a2	0.05072082
219	0xbf0a83a2	-0.54107106
220	0xbf7604c6	-0.96101034
221	0x3eb0e360	0.34548473
222	0xbe6bef9c	-0.23040622
223	0x3dce2642	0.10065891
224	0xbe80b4cc	-0.25137937
225	0xbeae5e40	-0.34056282
226	0x3f085bdb	0.5326516
227	0x3e5057d2	0.20346001
228	0xbe906018	-0.28198314
229	0xbe849a27	-0.2589886
230	0xbeac0adc	-0.33602035
231	0x3eeebee2	0.46630007
232	0xbf02e5c2	-0.5113183
233	0xbeb0d84a	-0.34540015
234	0xbdf755ac	-0.120768875
235	0xbeb9bd9b	-0.3627747
236	0x3e61f480	0.22065926
237	0xbd5dfe55	-0.054197628
238	0xbef491da	-0.47767526
239	0x3ef08e05	0.46983352
240	0x3e541bbd	0.20713706
241	0x3df4b884	0.11949256
242	0xbe951e9e	-0.29124922
243	0x3db0b1cd	0.08627663
244	0xbb015433	-0.0019734025
245	0xbe2e3964	-0.1701408
246	0x3e8eaf22	0.2786799
247	0x3ee8c449	0.45462254
248	0x3d067ab8	0.032831877
249	0xbebd9c8b	-0.37033495
250	0xbe8c018a	-0.27344924
251	0xbedd7238	-0.43251204
252	0x3bd46179	0.006481346
253	0xbe801c6d	-0.25021687
254	0x3d4a1814	0.04933937
255	0x3e4e85b8	0.20168197

sequential_1/dense_4/MatMul i1 [64, 64] scale=0.009894652 zero_point=0
0	0xd3	-0.44525936
1	0x19	0.24736631
2	0x03	0.029683957
3	0xf3	-0.12863047
4	0xff	-0.009894652
5	0x04	0.03957861
6	0xed	-0.1879984
7	0x15	0.20778769
8	0x0a	0.09894653
9	0x03	0.029683957
10	0xff	-0.009894652
11	0xef	-0.16820909
12	0xfd	-0.029683957
13	0x37	0.5442059
14	0x0e	0.13852513
15	0xea	-0.21768235
16	0x00	0.0
17	0xd1	-0.46504867
18	0x0f	0.14841978
19	0x05	0.049473263
20	0xc5	-0.58378446
21	0xf4	-0.11873583
22	0x0e	0.13852513
23	0x0b	0.10884117
24	0x00	0.0
25	0xfb	-0.049473263
26	0x0a	0.09894653
27	0x07	0.069262564
28	0x13	0.1879984
29	0xdd	-0.34631282
30	0xfc	-0.03957861
31	0xa8	-0.8707294
32	0xdf	-0.3265235
33	0xe5	-0.26715562
34	0xfb	-0.049473263
35	0xe7	-0.24736631
36	0x13	0.1879984
37	0xf5	-0.10884117
38	0xe5	-0.26715562
39	0xfe	-0.019789305
40	0xe4	-0.27705026
41	0xea	-0.21768235
42	0x01	0.009894652
43	0x2d	0.44525936
44	0xe8	-0.23747166
45	0x03	0.029683957
46	0x11	0.16820909
47	0x11	0.16820909
48	0x0a	0.09894653
49	0xf9	-0.069262564
50	0x14	0.19789305
51	0x04	0.03957861
52	0xf2	-0.13852513
53	0xfb	-0.049473263
54	0xc1	-0.6233631
55	0x10	0.15831444
56	0x02	0.019789305
57	0xf2	-0.13852513
58	0x08	0.07915722
59	0x09	0.08905187
60	0x04	0.03957861
61	0x00	0.0
62	0x1a	0.25726095
63	0x53	0.82125616
64	0x05	0.049473263
65	0xf7	-0.08905187
66	0x04	0.03957861
67	0xfc	-0.03957861
68	0x03	0.029683957
69	0x0d	0.12863047
70	0x0f	0.14841978
71	0x14	0.19789305
72	0xed	-0.1879984
73	0xeb	-0.20778769
74	0xf2	-0.13852513
75	0x0c	0.11873583
76	0xf2	-0.13852513
77	0xf0	-0.15831444
78	0xf2	-0.13852513
79	0xf5	-0.10884117
80	0xfa	-0.059367914
81	0xef	-0.16820909
82	0x01	0.009894652
83	0x0f	0.14841978
84	0x05	0.049473263
85	0x0c	0.11873583
86	0x11	0.16820909
87	0xfc	-0.03957861
88	0x04	0.03957861
89	0xfc	-0.03957861
90	0xfa	-0.059367914
91	0x12	0.17810374
92	0xed	-0.1879984
93	0xf3	-0.12863047
94	0xe8	-0.23747166
95	0x04	0.03957861
96	0x02	0.019789305
97	0x05	0.049473263
98	0xee	-0.17810374
99	0xf5	-0.10884117
100	0xf0	-0.15831444
101	0xec	-0.19789305
102	0xf7	-0.08905187
103	0xe9	-0.227577
104	0x0e	0.13852513
105	0xfa	-0.059367914
106	0xf7	-0.08905187
107	0x08	0.07915722
108	0x12	0.17810374
109	0xf5	-0.10884117
110	0x0f	0.14841978
111	0x0b	0.10884117
112	0xe9	-0.227577
113	0x05	0.049473263
114	0x0a	0.09894653
115	0xed	-0.1879984
116	0xee	-0.17810374
117	0x10	0.15831444
118	0x0e	0.13852513
119	0x0b	0.10884117
120	0xea	-0.21768235
121	0x0f	0.14841978
122	0xfb	-0.049473263
123	0x10	0.15831444
124	0xfc	-0.03957861
125	0xf7	-0.08905187
126	0xeb	-0.20778769
127	0x08	0.07915722
128	0xe9	-0.227577
129	0xed	-0.1879984
130	0xec	-0.19789305
131	0x38	0.5541005
132	0xee	-0.17810374
133	0x05	0.049473263
134	0x4f	0.78167754
135	0x51	0.8014668
136	0xf3	-0.12863047
137	0x00	0.0
138	0x1c	0.27705026
139	0x05	0.049473263
140	0xdb	-0.36610213
141	0x14	0.19789305
142	0x1c	0.27705026
143	0xf4	-0.11873583
144	0x0b	0.10884117
145	0x30	0.4749433
146	0x0d	0.12863047
147	0x13	0.1879984
148	0xe7	-0.24736631
149	0x0a	0.09894653
150	0x09	0.08905187
151	0x08	0.07915722
152	0x0a	0.09894653
153	0x10	0.15831444
154	0x03	0.029683957
155	0xf3	-0.12863047
156	0xf9	-0.069262564
157	0x2c	0.4353647
158	0xfe	-0.019789305
159	0x1e	0.29683957
160	0x3b	0.58378446
161	0x19	0.24736631
162	0xf7	-0.08905187
163	0x12	0.17810374
164	0xf7	-0.08905187
165	0xd9	-0.38589144
166	0x1f	0.30673423
167	0xf2	-0.13852513
168	0xe5	-0.26715562
169	0x20	0.31662887
170	0xf9	-0.069262564
171	0x27	0.38589144
172	0x0b	0.10884117
173	0x06	0.059367914
174	0x03	0.029683957
175	0x20	0.31662887
176	0xee	-0.17810374
177	0xea	-0.21768235
178	0x09	0.08905187
179	0xf5	-0.10884117
180	0xef	-0.16820909
181	0xf6	-0.09894653
182	0xd7	-0.40568075
183	0x00	0.0
184	0xef	-0.16820909
185	0x1d	0.28694493
186	0xe9	-0.227577
187	0x0f	0.14841978
188	0xe5	-0.26715562
189	0xfa	-0.059367914
190	0xff	-0.009894652
191	0xe4	-0.27705026
192	0x14	0.19789305
193	0xfb	-0.049473263
194	0xed	-0.1879984
195	0xf2	-0.13852513
196	0xfa	-0.059367914
197	0xea	-0.21768235
198	0x0f	0.14841978
199	0x05	0.049473263
200	0x06	0.059367914
201	0xee	-0.17810374
202	0xef	-0.16820909
203	0x05	0.049473263
204	0xf7	-0.08905187
205	0x15	0.20778769
206	0xee	-0.17810374
207	0xf8	-0.07915722
208	0xf1	-0.14841978
209	0xfe	-0.019789305
210	0x0d	0.12863047
211	0xfd	-0.029683957
212	0x16	0.21768235
213	0xea	-0.21768235
214	0x0f	0.14841978
215	0x0c	0.11873583
216	0xf1	-0.14841978
217	0xf3	-0.12863047
218	0xfe	-0.019789305
219	0x0d	0.12863047
220	0x04	0.03957861
221	0x13	0.1879984
222	0x04	0.03957861
223	0xf1	-0.14841978
224	0xf8	-0.07915722
225	0x06	0.059367914
226	0x12	0.17810374
227	0xf5	-0.10884117
228	0xf3	-0.12863047
229	0x12	0.17810374
230	0x01	0.009894652
231	0xf1	-0.14841978
232	0x03	0.029683957
233	0xef	-0.16820909
234	0xf4	-0.11873583
235	0x0a	0.09894653
236	0xf6	-0.09894653
237	0x02	0.019789305
238	0x0f	0.14841978
239	0x01	0.009894652
240	0xf6	-0.09894653
241	0xf2	-0.13852513
242	0x14	0.19789305
243	0xea	-0.21768235
244	0x10	0.15831444
245	0xf3	-0.12863047
246	0x16	0.21768235
247	0x02	0.019789305
248	0xfe	-0.019789305
249	0xfe	-0.019789305
250	0x0d	0.12863047
251	0xeb	-0.20778769
252	0xf8	-0.07915722
253	0xec	-0.19789305
254	0xf0	-0.15831444
255	0x03	0.029683957

sequential_1/dense_5/MatMul i1 [32, 64] scale=0.017471196 zero_point=0
0	0xf3	-0.22712556
1	0x0b	0.19218315
2	0xdf	-0.5765495
3	0x00	0.0
4	0xe5	-0.4717223
5	0xf9	-0.122298375
6	0x01	0.017471196
7	0xfb	-0.08735598
8	0x00	0.0
9	0xf3	-0.22712556
10	0xe8	-0.41930872
11	0x01	0.017471196
12	0x09	0.15724076
13	0x03	0.05241359
14	0xee	-0.31448153
15	0x01	0.017471196
16	0xf1	-0.26206794
17	0xff	-0.017471196
18	0xf3	-0.22712556
19	0x00	0.0
20	0x05	0.08735598
21	0xfb	-0.08735598
22	0x08	0.13976957
23	0xfc	-0.069884785
24	0xf3	-0.22712556
25	0xf8	-0.13976957
26	0xf9	-0.122298375
27	0x06	0.10482718
28	0x08	0.13976957
29	0xf5	-0.19218315
30	0x06	0.10482718
31	0x04	0.069884785
32	0x0a	0.17471196
33	0x0a	0.17471196
34	0xf9	-0.122298375
35	0x03	0.05241359
36	0xec	-0.34942392
37	0xee	-0.31448153
38	0x02	0.034942392
39	0x00	0.0
40	0xf7	-0.15724076
41	0x06	0.10482718
42	0xe9	-0.4018375
43	0x04	0.069884785
44	0xfd	-0.05241359
45	0xda	-0.66390544
46	0x06	0.10482718
47	0xf5	-0.19218315
48	0xf5	-0.19218315
49	0xf5	-0.19218315
50	0xfe	-0.034942392
51	0xef	-0.29701033
52	0x08	0.13976957
53	0xf2	-0.24459675
54	0xe4	-0.4891935
55	0xfa	-0.10482718
56	0xea	-0.3843663
57	0xf3	-0.22712556
58	0xe8	-0.41930872
59	0xee	-0.31448153
60	0xf2	-0.24459675
61	0x04	0.069884785
62	0xf9	-0.122298375
63	0xf8	-0.13976957
64	0xf2	-0.24459675
65	0xff	-0.017471196
66	0xf5	-0.19218315
67	0x06	0.10482718
68	0xf8	-0.13976957
69	0x05	0.08735598
70	0xf7	-0.15724076
71	0x0b	0.19218315
72	0xe9	-0.4018375
73	0x02	0.034942392
74	0x0b	0.19218315
75	0x0e	0.24459675
76	0xf3	-0.22712556
77	0xfc	-0.069884785
78	0x0a	0.17471196
79	0xfe	-0.034942392
80	0x14	0.34942392
81	0x0d	0.22712556
82	0xf3	-0.22712556
83	0xf7	-0.15724076
84	0x02	0.034942392
85	0x02	0.034942392
86	0x0e	0.24459675
87	0x08	0.13976957
88	0x0b	0.19218315
89	0xe5	-0.4717223
90	0xe5	-0.4717223
91	0x1d	0.5066647
92	0x01	0.017471196
93	0x07	0.122298375
94	0x00	0.0
95	0x08	0.13976957
96	0xf2	-0.24459675
97	0x10	0.27953914
98	0xfb	-0.08735598
99	0xf5	-0.19218315
100	0x04	0.069884785
101	0x12	0.31448153
102	0x03	0.05241359
103	0xfc	-0.069884785
104	0x0d	0.22712556
105	0x0e	0.24459675
106	0x0e	0.24459675
107	0x0f	0.26206794
108	0xe7	-0.43677992
109	0xc6	-1.0133294
110	0xf7	-0.15724076
111	0x0f	0.26206794
112	0xf2	-0.24459675
113	0x02	0.034942392
114	0xfa	-0.10482718
115	0x03	0.05241359
116	0xfa	-0.10482718
117	0xc7	-0.9958582
118	0x0b	0.19218315
119	0x02	0.034942392
120	0xeb	-0.3668951
121	0x01	0.017471196
122	0x00	0.0
123	0xfd	-0.05241359
124	0x01	0.017471196
125	0xf1	-0.26206794
126	0xed	-0.33195272
127	0x09	0.15724076
128	0x00	0.0
129	0x0c	0.20965436
130	0xf9	-0.122298375
131	0xf9	-0.122298375
132	0xf3	-0.22712556
133	0x0e	0.24459675
134	0xe8	-0.41930872
135	0x0a	0.17471196
136	0xf5	-0.19218315
137	0xf2	-0.24459675
138	0x0d	0.22712556
139	0xeb	-0.3668951
140	0x14	0.34942392
141	0x08	0.13976957
142	0x0a	0.17471196
143	0xc4	-1.0482718
144	0x0b	0.19218315
145	0xf6	-0.17471196
146	0xa2	-1.6422924
147	0x17	0.4018375
148	0x0d	0.22712556
149	0x0c	0.20965436
150	0x1c	0.4891935
151	0x09	0.15724076
152	0xfe	-0.034942392
153	0xf6	-0.17471196
154	0x05	0.08735598
155	0x05	0.08735598
156	0x10	0.27953914
157	0x03	0.05241359
158	0xf6	-0.17471196
159	0x18	0.41930872
160	0x0a	0.17471196
161	0x02	0.034942392
162	0xfd	-0.05241359
163	0x0f	0.26206794
164	0x03	0.05241359
165	0xe9	-0.4018375
166	0xf5	-0.19218315
167	0xfa	-0.10482718
168	0xfb	-0.08735598
169	0xf9	-0.122298375
170	0xfd	-0.05241359
171	0xe4	-0.4891935
172	0xf6	-0.17471196
173	0x0a	0.17471196
174	0x0d	0.22712556
175	0x06	0.10482718
176	0xfd	-0.05241359
177	0xf8	-0.13976957
178	0xfd	-0.05241359
179	0x0a	0.17471196
180	0xea	-0.3843663
181	0x14	0.34942392
182	0x05	0.08735598
183	0xf8	-0.13976957
184	0xfc	-0.069884785
185	0x0f	0.26206794
186	0xeb	-0.3668951
187	0x03	0.05241359
188	0xe9	-0.4018375
189	0xcb	-0.9259734
190	0x0f	0.26206794
191	0xfd	-0.05241359
192	0xf2	-0.24459675
193	0xfd	-0.05241359
194	0xfc	-0.069884785
195	0xf7	-0.15724076
196	0x97	-1.8344756
197	0xfe	-0.034942392
198	0xe2	-0.5241359
199	0xf3	-0.22712556
200	0x0d	0.22712556
201	0xff	-0.017471196
202	0x08	0.13976957
203	0x13	0.33195272
204	0x02	0.034942392
205	0xcc	-0.9085022
206	0x10	0.27953914
207	0x03	0.05241359
208	0xef	-0.29701033
209	0x0d	0.22712556
210	0xda	-0.66390544
211	0x0f	0.26206794
212	0x04	0.069884785
213	0x02	0.034942392
214	0xe6	-0.4542511
215	0xf2	-0.24459675
216	0xf7	-0.15724076
217	0x07	0.122298375
218	0x0a	0.17471196
219	0xe4	-0.4891935
220	0x02	0.034942392
221	0x0a	0.17471196
222	0xfe	-0.034942392
223	0x05	0.08735598
224	0xf2	-0.24459675
225	0xe5	-0.4717223
226	0x01	0.017471196
227	0x12	0.31448153
228	0x07	0.122298375
229	0xfa	-0.10482718
230	0x07	0.122298375
231	0x00	0.0
232	0xfc	-0.069884785
233	0xbd	-1.1705701
234	0x0e	0.24459675
235	0xff	-0.017471196
236	0xec	-0.34942392
237	0x04	0.069884785
238	0x06	0.10482718
239	0xec	-0.34942392
240	0xf4	-0.20965436
241	0x0b	0.19218315
242	0x0b	0.19218315
243	0xf1	-0.26206794
244	0xf9	-0.122298375
245	0xf3	-0.22712556
246	0xfe	-0.034942392
247	0x19	0.43677992
248	0x07	0.122298375
249	0x06	0.10482718
250	0x16	0.3843663
251	0xdb	-0.64643425
252	0xff	-0.017471196
253	0xed	-0.33195272
254	0x0a	0.17471196
255	0xe3	-0.5066647
